Filtered: 1549 rows
Model: "sequential_12"
┏━━━━━━━━━━━━━━━━━━━━━━━━━━━━━━━━━┳━━━━━━━━━━━━━━━━━━━━━━━━┳━━━━━━━━━━━━━━━┓
┃ Layer (type)                    ┃ Output Shape           ┃       Param # ┃
┡━━━━━━━━━━━━━━━━━━━━━━━━━━━━━━━━━╇━━━━━━━━━━━━━━━━━━━━━━━━╇━━━━━━━━━━━━━━━┩
│ conv1d_10 (Conv1D)              │ (None, 4, 32)          │            96 │
├─────────────────────────────────┼────────────────────────┼───────────────┤
│ batch_normalization_5           │ (None, 4, 32)          │           128 │
│ (BatchNormalization)            │                        │               │
├─────────────────────────────────┼────────────────────────┼───────────────┤
│ dropout_17 (Dropout)            │ (None, 4, 32)          │             0 │
├─────────────────────────────────┼────────────────────────┼───────────────┤
│ conv1d_11 (Conv1D)              │ (None, 3, 64)          │         4,160 │
├─────────────────────────────────┼────────────────────────┼───────────────┤
│ global_max_pooling1d_5          │ (None, 64)             │             0 │
│ (GlobalMaxPooling1D)            │                        │               │
├─────────────────────────────────┼────────────────────────┼───────────────┤
│ dense_24 (Dense)                │ (None, 32)             │         2,080 │
├─────────────────────────────────┼────────────────────────┼───────────────┤
│ dropout_18 (Dropout)            │ (None, 32)             │             0 │
├─────────────────────────────────┼────────────────────────┼───────────────┤
│ dense_25 (Dense)                │ (None, 4)              │           132 │
└─────────────────────────────────┴────────────────────────┴───────────────┘
 Total params: 6,596 (25.77 KB)
 Trainable params: 6,532 (25.52 KB)
 Non-trainable params: 64 (256.00 B)
Epoch 1/20
78/78 ━━━━━━━━━━━━━━━━━━━━ 3s 7ms/step - accuracy: 0.4041 - loss: 1.1603 - val_accuracy: 0.5129 - val_loss: 1.2010
Epoch 2/20
78/78 ━━━━━━━━━━━━━━━━━━━━ 0s 4ms/step - accuracy: 0.6011 - loss: 0.8009 - val_accuracy: 0.5065 - val_loss: 1.1071
…
