Loaded dataset with rows: 1549
Classes: ['Corn' 'Cotton' 'Rice' 'Soybeans']
Model: "sequential_11"
┏━━━━━━━━━━━━━━━━━━━━━━━━━━━━━━━━━┳━━━━━━━━━━━━━━━━━━━━━━━━┳━━━━━━━━━━━━━━━┓
┃ Layer (type)                    ┃ Output Shape           ┃       Param # ┃
┡━━━━━━━━━━━━━━━━━━━━━━━━━━━━━━━━━╇━━━━━━━━━━━━━━━━━━━━━━━━╇━━━━━━━━━━━━━━━┩
│ masking_9 (Masking)             │ (None, 1, 5)           │             0 │
├─────────────────────────────────┼────────────────────────┼───────────────┤
│ bidirectional_5 (Bidirectional) │ (None, 1, 128)         │        35,840 │
├─────────────────────────────────┼────────────────────────┼───────────────┤
│ dropout_16 (Dropout)            │ (None, 1, 128)         │             0 │
├─────────────────────────────────┼────────────────────────┼───────────────┤
│ lstm_12 (LSTM)                  │ (None, 32)             │        20,608 │
├─────────────────────────────────┼────────────────────────┼───────────────┤
│ dense_22 (Dense)                │ (None, 16)             │           528 │
├─────────────────────────────────┼────────────────────────┼───────────────┤
│ dense_23 (Dense)                │ (None, 4)              │            68 │
└─────────────────────────────────┴────────────────────────┴───────────────┘
 Total params: 57,044 (222.83 KB)
 Trainable params: 57,044 (222.83 KB)
 Non-trainable params: 0 (0.00 B)
Epoch 1/20
39/39 ━━━━━━━━━━━━━━━━━━━━ 9s 36ms/step - accuracy: 0.4721 - loss: 1.3483 - val_accuracy: 0.5903 - val_loss: 1.3258 - learning_rate: 0.0010
Epoch 2/20
39/39 ━━━━━━━━━━━━━━━━━━━━ 1s 8ms/step - accuracy: 0.6070 - loss: 1.1814 - val_accuracy: 0.5774 - val_loss: 1.1984 - learning_rate: 0.0010
…
