Loaded: 31538 rows
Model: "sequential_16"
┏━━━━━━━━━━━━━━━━━━━━━━━━━━━━━━━━━┳━━━━━━━━━━━━━━━━━━━━━━━━┳━━━━━━━━━━━━━━━┓
┃ Layer (type)                    ┃ Output Shape           ┃       Param # ┃
┡━━━━━━━━━━━━━━━━━━━━━━━━━━━━━━━━━╇━━━━━━━━━━━━━━━━━━━━━━━━╇━━━━━━━━━━━━━━━┩
│ masking_13 (Masking)            │ (None, 21, 8)          │             0 │
├─────────────────────────────────┼────────────────────────┼───────────────┤
│ conv1d_12 (Conv1D)              │ (None, 21, 64)         │         1,600 │
├─────────────────────────────────┼────────────────────────┼───────────────┤
│ batch_normalization_6           │ (None, 21, 64)         │           256 │
│ (BatchNormalization)            │                        │               │
├─────────────────────────────────┼────────────────────────┼───────────────┤
│ dropout_22 (Dropout)            │ (None, 21, 64)         │             0 │
├─────────────────────────────────┼────────────────────────┼───────────────┤
│ conv1d_13 (Conv1D)              │ (None, 21, 32)         │         6,176 │
├─────────────────────────────────┼────────────────────────┼───────────────┤
│ global_max_pooling1d_6          │ (None, 32)             │             0 │
│ (GlobalMaxPooling1D)            │                        │               │
├─────────────────────────────────┼────────────────────────┼───────────────┤
│ dense_32 (Dense)                │ (None, 64)             │         2,112 │
├─────────────────────────────────┼────────────────────────┼───────────────┤
│ dropout_23 (Dropout)            │ (None, 64)             │             0 │
├─────────────────────────────────┼────────────────────────┼───────────────┤
│ dense_33 (Dense)                │ (None, 4)              │           260 │
└─────────────────────────────────┴────────────────────────┴───────────────┘
 Total params: 10,404 (40.64 KB)
 Trainable params: 10,276 (40.14 KB)
 Non-trainable params: 128 (512.00 B)
Epoch 1/20
310/310 ━━━━━━━━━━━━━━━━━━━━ 4s 4ms/step - accuracy: 0.3230 - loss: 1.4630 - val_accuracy: 0.7645 - val_loss: 0.7768
Epoch 2/20
310/310 ━━━━━━━━━━━━━━━━━━━━ 1s 3ms/step - accuracy: 0.6650 - loss: 0.5877 - val_accuracy: 0.8065 - val_loss: 0.4990
…
