Filtered: 5510 rows
Model: "sequential_31"
┏━━━━━━━━━━━━━━━━━━━━━━━━━━━━━━━━━┳━━━━━━━━━━━━━━━━━━━━━━━━┳━━━━━━━━━━━━━━━┓
┃ Layer (type)                    ┃ Output Shape           ┃       Param # ┃
┡━━━━━━━━━━━━━━━━━━━━━━━━━━━━━━━━━╇━━━━━━━━━━━━━━━━━━━━━━━━╇━━━━━━━━━━━━━━━┩
│ conv1d_22 (Conv1D)              │ (None, 4, 32)          │            96 │
├─────────────────────────────────┼────────────────────────┼───────────────┤
│ batch_normalization_11          │ (None, 4, 32)          │           128 │
│ (BatchNormalization)            │                        │               │
├─────────────────────────────────┼────────────────────────┼───────────────┤
│ dropout_42 (Dropout)            │ (None, 4, 32)          │             0 │
├─────────────────────────────────┼────────────────────────┼───────────────┤
│ conv1d_23 (Conv1D)              │ (None, 3, 64)          │         4,160 │
├─────────────────────────────────┼────────────────────────┼───────────────┤
│ global_max_pooling1d_11         │ (None, 64)             │             0 │
│ (GlobalMaxPooling1D)            │                        │               │
├─────────────────────────────────┼────────────────────────┼───────────────┤
│ dense_62 (Dense)                │ (None, 32)             │         2,080 │
├─────────────────────────────────┼────────────────────────┼───────────────┤
│ dropout_43 (Dropout)            │ (None, 32)             │             0 │
├─────────────────────────────────┼────────────────────────┼───────────────┤
│ dense_63 (Dense)                │ (None, 27)             │           891 │
└─────────────────────────────────┴────────────────────────┴───────────────┘
 Total params: 7,355 (28.73 KB)
 Trainable params: 7,291 (28.48 KB)
 Non-trainable params: 64 (256.00 B)
Epoch 1/20
276/276 ━━━━━━━━━━━━━━━━━━━━ 3s 4ms/step - accuracy: 0.0409 - loss: 3.3777 - val_accuracy: 0.0898 - val_loss: 3.2285
Epoch 2/20
276/276 ━━━━━━━━━━━━━━━━━━━━ 1s 3ms/step - accuracy: 0.0850 - loss: 3.1238 - val_accuracy: 0.1243 - val_loss: 3.0211
…
