Loaded: 101034 rows
Model: "sequential_33"
┏━━━━━━━━━━━━━━━━━━━━━━━━━━━━━━━━━┳━━━━━━━━━━━━━━━━━━━━━━━━┳━━━━━━━━━━━━━━━┓
┃ Layer (type)                    ┃ Output Shape           ┃       Param # ┃
┡━━━━━━━━━━━━━━━━━━━━━━━━━━━━━━━━━╇━━━━━━━━━━━━━━━━━━━━━━━━╇━━━━━━━━━━━━━━━┩
│ masking_25 (Masking)            │ (None, 24, 8)          │             0 │
├─────────────────────────────────┼────────────────────────┼───────────────┤
│ conv1d_24 (Conv1D)              │ (None, 24, 64)         │         1,600 │
├─────────────────────────────────┼────────────────────────┼───────────────┤
│ batch_normalization_12          │ (None, 24, 64)         │           256 │
│ (BatchNormalization)            │                        │               │
├─────────────────────────────────┼────────────────────────┼───────────────┤
│ dropout_45 (Dropout)            │ (None, 24, 64)         │             0 │
├─────────────────────────────────┼────────────────────────┼───────────────┤
│ conv1d_25 (Conv1D)              │ (None, 24, 32)         │         6,176 │
├─────────────────────────────────┼────────────────────────┼───────────────┤
│ global_max_pooling1d_12         │ (None, 32)             │             0 │
│ (GlobalMaxPooling1D)            │                        │               │
├─────────────────────────────────┼────────────────────────┼───────────────┤
│ dense_66 (Dense)                │ (None, 64)             │         2,112 │
├─────────────────────────────────┼────────────────────────┼───────────────┤
│ dropout_46 (Dropout)            │ (None, 64)             │             0 │
├─────────────────────────────────┼────────────────────────┼───────────────┤
│ dense_67 (Dense)                │ (None, 27)             │         1,755 │
└─────────────────────────────────┴────────────────────────┴───────────────┘
 Total params: 11,899 (46.48 KB)
 Trainable params: 11,771 (45.98 KB)
 Non-trainable params: 128 (512.00 B)
Epoch 1/20
1100/1100 ━━━━━━━━━━━━━━━━━━━━ 6s 3ms/step - accuracy: 0.0803 - loss: 3.5638 - val_accuracy: 0.3791 - val_loss: 2.3055
Epoch 2/20
1100/1100 ━━━━━━━━━━━━━━━━━━━━ 5s 4ms/step - accuracy: 0.2637 - loss: 2.4120 - val_accuracy: 0.4273 - val_loss: 1.8202
…
